…
LOG --> Processing dataset of length 46000...
(46000, 28, 28, 1)
(46000, 10)
LOG --> Processing dataset of length 28000...
(28000, 28, 28, 1)
(28000, 10)
LOG --> Processing dataset of length 16000...
(16000, 28, 28, 1)
(16000, 10)
LOG --> Input Shape: (28, 28, 1)
Model: "model"
_________________________________________________________________
 Layer (type)                Output Shape              Param #   
=================================================================
 input_1 (InputLayer)        [(None, 28, 28, 1)]       0         
                                                                 
 conv2d (Conv2D)             (None, 24, 24, 6)         156       
                                                                 
 average_pooling2d (AverageP  (None, 12, 12, 6)        0         
 ooling2D)                                                       
                                                                 
 conv2d_1 (Conv2D)           (None, 8, 8, 16)          2416      
                                                                 
 average_pooling2d_1 (Averag  (None, 4, 4, 16)         0         
 ePooling2D)                                                     
                                                                 
 flatten (Flatten)           (None, 256)               0         
                                                                 
 dense (Dense)               (None, 120)               30840     
                                                                 
 dense_1 (Dense)             (None, 84)                10164     
                                                                 
 dense_2 (Dense)             (None, 10)                850       
                                                                 
=================================================================
Total params: 44,426
Trainable params: 44,426
Non-trainable params: 0
_________________________________________________________________
Epoch 1/5

Epoch 00001: val_loss improved from inf to 0.15711, saving model to /home/psc/repos/neuro_comp_class/tutorials/modelgen/models/lenet.h5
…
