…
#controlling_retracing and https://www.tensorflow.org/api_docs/python/tf/function for  more details.
Initializing INI simulator...

Loading data set from '.npz' files in /home/psc/repos/neuro_comp_class/tutorials/snntb/data.

Model: "model"
_________________________________________________________________
 Layer (type)                Output Shape              Param #   
=================================================================
 input_1 (InputLayer)        [(None, 28, 28, 1)]       0         
                                                                 
 conv2d (Conv2D)             (None, 24, 24, 6)         156       
                                                                 
 average_pooling2d (AverageP  (None, 12, 12, 6)        0         
 ooling2D)                                                       
                                                                 
 conv2d_1 (Conv2D)           (None, 8, 8, 16)          2416      
                                                                 
 average_pooling2d_1 (Averag  (None, 4, 4, 16)         0         
 ePooling2D)                                                     
                                                                 
 flatten (Flatten)           (None, 256)               0         
                                                                 
 dense (Dense)               (None, 120)               30840     
                                                                 
 dense_1 (Dense)             (None, 84)                10164     
                                                                 
 dense_2 (Dense)             (None, 10)                850       
                                                                 
=================================================================
Total params: 44,426
Trainable params: 44,426
Non-trainable params: 0
_________________________________________________________________
Evaluating input model on 100 samples...
Top-1 accuracy: 98.00%
Top-5 accuracy: 100.00%

Parsing input model...
Skipping layer InputLayer.
…
Parsing layer AveragePooling2D.
Parsing layer Flatten.
Parsing layer Dense.
Using activation relu.
Parsing layer Dense.
Using activation relu.
Parsing layer Dense.
Using activation softmax.

Building parsed model...

Compiling parsed model...

Model: "model"
_________________________________________________________________
 Layer (type)                Output Shape              Param #   
=================================================================
 input_1 (InputLayer)        [(32, 28, 28, 1)]         0         
                                                                 
 0Conv2D_24x24x6 (Conv2D)    (32, 24, 24, 6)           156       
                                                                 
 1AveragePooling2D_12x12x6 (  (32, 12, 12, 6)          0         
 AveragePooling2D)                                               
                                                                 
 2Conv2D_8x8x16 (Conv2D)     (32, 8, 8, 16)            2416      
                                                                 
 3AveragePooling2D_4x4x16 (A  (32, 4, 4, 16)           0         
 veragePooling2D)                                                
                                                                 
 4Flatten_256 (Flatten)      (32, 256)                 0         
                                                                 
 5Dense_120 (Dense)          (32, 120)                 30840     
                                                                 
 6Dense_84 (Dense)           (32, 84)                  10164     
                                                                 
 7Dense_10 (Dense)           (32, 10)                  850       
                                                                 
=================================================================
Total params: 44,426
Trainable params: 44,426
Non-trainable params: 0
_________________________________________________________________
Normalizing parameters...
Using 4600 samples for normalization.
INFO: Need ['0.06', '0.02', '0.00', '0.00', '0.00'] GB for layer activations.
…
